data.pth (torch, 12785 bytes, 8 tensors)

l1.weight f4 [8, 193]
00000000: 1ee5 01bf 9b05 9a3e 9881 d43d 7f30 443e
00000010: a9a0 773d aaa8 bd3d c511 c43e 8ae1 fd3d
00000020: aa44 9e3e c999 aa3e c104 943e 6581 ce3e
00000030: 38bf af3d 8b43 a33d 7bab 473e f6c8 25bf
00000040: 437b 4abf ab3b c13e b071 99bd ca50 b43c
00000050: 558d 2a3f e452 063f 9bd4 1a3f 01c6 e3be
00000060: 72e3 a93e b727 413e 2fac 8dbe 9a79 c83e
00000070: 87ce 313f a8d6 86bf 02ba 58bf 05a5 813f
00000080: 7001 203f 1f9b ae3f ddf4 243f d50f b33d
00000090: 0e5a 163f 0b02 893e 8dda ca3e e6c9 fb3e
000000a0: 5a87 493f e7e9 6a3f 5c93 453e e7da d53e
000000b0: 8b05 6a3e 6196 68be 4f4a 023f c6d2 313f
000000c0: f8e7 2dbf 96f8 713f 7f2e 143f 4e03 debc
000000d0: a162 b23f 8588 913e 8099 f13e 6bec 9e3e
000000e0: a22c 5bbf 01fb 76bf 8442 9d3e c686 babc
000000f0: 34fe 86be 6a00 2f3f a2f9 a6be 4117 6c3e
00000100: fcbc 8d3e f09f acbe 37ef 1d3e ff21 463f
00000110: e547 6a3f 4b4a 203f c8d8 5c3d a630 153f
00000120: b1d0 0e3f a393 fc3e befb 6c3e dcb2 af3e
00000130: ddad 1c3f a725 5f3e a11c 243f 7bdc 293f
00000140: 2a7c f4bd 28c9 3e3f e823 b1be 7779 dd3e
00000150: 72fe 5dbe e67c 66be 7f72 e13e ef73 8b3e
00000160: 53b8 963e d8a5 333f 515d 563f 4cf3 203f
00000170: f9e9 24bf 8f36 dd3e 51ea 1b3e bea9 893e
00000180: 7332 843e e95e 50bd 9222 a8be 8b11 ff3e
00000190: 06a7 45bd a527 7bbe af2d 09be 94ae 6f3d
000001a0: cb47 573e adff 4a3f ad63 633f e04e 95be
000001b0: 32c3 283f 63f3 a4b9 9477 d03d b1b1 403f
000001c0: 0a67 c7bc 7eb9 103f d6f1 853d 0a7c 613e
000001d0: eb15 ce3e 134e 24bf d0fe 0ebf 6187 153f
000001e0: 6566 a73e f24f e0be 231f 8d3e f2f8 cb3c
000001f0: 3959 ad3d b72d 49be 3c6a 453f 5f00 1d3f
00000200: f026 4d3f 429d e73d 0b89 043f 5a71 653d
00000210: 7c43 da3e d0fb 183e e0af 303e dcbb 393f
00000220: b3e9 093f 5a97 f73e d651 763e 0448 c13e
00000230: ff24 fc3d e163 78bf 594b 9a3e 181e ed3e
00000240: 4aee 2f3f 10be 763f c1f8 273f 0ca7 463e
00000250: 5de8 abbd 3ff1 21bf 6fa3 bc3e 7187 1a3e
00000260: f390 6bbe 65bb 363f 8363 113f 7785 c4bb
00000270: 79fb 1cbf 770f f53e f113 fabb a7c0 7cbe
00000280: 09c9 0f3f ec7f c03d 65fe 7fbf 78ad bebe
00000290: 0cd7 a63d 3a46 e83e 27ed 043e 61fb c03d
000002a0: f8cf 8f3e a021 3f3e da09 ce3e a774 7bbe
000002b0: 5730 fe3e a7d4 8f3c e068 993e 46da 7bbe
000002c0: 44df 753e 40b3 fabe 3532 6bbe 34a7 013f
000002d0: 7ad1 16bf 5e58 dcbd e94d ea3e d409 ad3e
000002e0: 9c54 53be f02e bebd 1655 4fbe c4d7 543e
000002f0: 2739 0e3e ad7a 1b3e cc7b 673e fe7b 0c3f
00000300: 514b 503e efd4 4c3f ec92 c23c 7905 d63e
00000310: df57 c83e 4053 66be cb46 3bbe f1f6 0c3f
00000320: a6d2 fdbd 62c5 6dbe ff28 633d 2e11 a63e
00000330: 9a28 893f 75d3 d43d aaac 90be c5d5 b43d
00000340: f92f cbbe 14ef 313e 16b9 333d c45d 663e
00000350: bbfe a13e de62 a53d 5f5c c33e 53dd ef3e
00000360: 55c7 ec3e df49 f2bb e5f7 ba3e a98d fe3e
00000370: 5ca1 783e 05b2 70be fcd0 2b3f 0661 563f
00000380: b914 81bf 1ba8 01bf 9e23 3abf 05e4 0cbf
00000390: 58e4 c23e e9b9 02bf cf60 813e 9f65 8e3c
000003a0: 4ae7 48bf fe2c f13e 0f55 133f e1a7 8a3e
000003b0: 7b4a b6bd 6186 343e d0cb 58bf e3f7 473e
000003c0: 5a5f c13d 9852 153f 440b 17bf c25c e8be
000003d0: cbbd ea3e 2555 7fbf 7a9b 833e bb7f 863d
000003e0: d36a dcbb c022 3a3f 04c8 4e3f c0cf 5bbe
000003f0: 5b46 21be 639e e43c e82c 3ebf bef9 b3be
-0.5074023 0.30082402 0.103762805 0.19159125 0.06045595 0.09260686 0.38294807 0.12396534
0.30911762 0.33320454 0.28909877 0.40333095 0.08581394 0.07971867 0.19499008 -0.6475977
-0.7909433 0.37740836 -0.07492387 0.02201118 0.66621906 0.5247023 0.6048066 -0.44487002
0.3318134 0.18862806 -0.27670428 0.39155275 0.6945576 -1.0534258 -0.84658825 1.0128485
0.62502193 1.3641089 0.6443613 0.08743254 0.5873116 0.2675937 0.39619866 0.49177474
0.78722155 0.91763157 0.19294494 0.41768572 0.22853677 -0.22713615 0.50894636 0.6946224
-0.6793208 0.9451994 0.5788345 -0.027101185 1.3936349 0.2842447 0.47187424 0.31039748
-0.8561498 -0.9647675 0.3071481 -0.022769343 -0.26365817 0.68360007 -0.3261233 0.23055746
0.27683246 -0.33715773 0.15423284 0.77395624 0.9151595 0.6261336 0.053917676 0.58277357
0.5578719 0.49331388 0.23142907 0.34316146 0.61202794 0.21791707 0.64106184 0.6635205
-0.11937745 0.7452569 -0.34597707 0.43256733 -0.21679094 -0.22508582 0.44032666 0.27236888
0.29437503 0.7017493 0.8373614 0.6287124 -0.64419514 0.43205687 0.15226103 0.26887316
0.2581974 -0.050871763 -0.32838875 0.49818072 -0.04825499 -0.24526842 -0.13396333 0.0585161
0.2102348 0.7929638 0.8882397 -0.2916174 0.65922844 -0.00031461855 0.10179058 0.75271136
-0.024341125 0.5653304 0.06540267 0.22019973 0.40251097 -0.6418163 -0.55857563 0.58409697
0.32695308 -0.43810993 0.27562818 0.02489898 0.084642835 -0.19646345 0.77115226 0.6132869
0.8013754 0.113092914 0.5177161 0.056016304 0.42629611 0.14939809 0.17254591 0.72552276
0.5387222 0.4835766 0.24054655 0.37750256 0.12311744 -0.97027403 0.3013561 0.46312022
0.68722975 0.9638376 0.65613943 0.19399661 -0.08393929 -0.6325874 0.3684344 0.1509073
-0.23004512 0.7137969 0.5679247 -0.0059973556 -0.61321217 0.4786336 -0.0076317717 -0.24682866
0.5616613 0.09399399 -0.9999755 -0.3724172 0.08146486 0.4536608 0.12981091 0.09422947
0.28088355 0.1866517 0.4024189 -0.24556218 0.49646255 0.017557455 0.29962826 -0.24594983
0.2401095 -0.48964882 -0.22968371 0.50645757 -0.58913386 -0.10759042 0.45762566 0.3379656
-0.20637745 -0.09286296 -0.20247301 0.20785433 0.1388899 0.15183516 0.22605819 0.548767
0.20341231 0.8001241 0.023751698 0.4180105 0.3912954 -0.22492695 -0.18288724 0.550643
-0.123936936 -0.23219827 0.05545902 0.32434982 1.0715516 0.10391895 -0.28256732 0.08829836
-0.39685038 0.17376357 0.043877684 0.22496706 0.31639656 0.08075498 0.3815641 0.46848544
0.46245828 -0.00739406 0.36517254 0.49717453 0.24280304 -0.23505409 0.6711576 0.83741796
-1.0084449 -0.50647134 -0.727106 -0.5503543 0.38064837 -0.51064926 0.25269172 0.017382441
-0.7847792 0.4710464 0.57551664 0.27081206 -0.08900925 0.17629386 -0.84685993 0.19528155
0.09442015 0.58329153 -0.59001565 -0.4538327 0.45847926 -0.99739295 0.25704557 0.065673314
-0.0067266016 0.72709274 0.8077395 -0.21465969 -0.15749495 0.027907556 -0.7428727 -0.35151476

l1.bias f4 [8]
00000000: 8fc7 ae3f b46b 8f3f f75a ea3e c7f4 133f
00000010: f6bf 6e3f 094d 463f 08a4 0c3f 239d 013f
1.365465 1.1204743 0.45772526 0.57795376 0.9326166 0.77461296 0.5493779 0.50630397

l2.weight f4 [8, 8]
00000000: a11e 3e3f 3f87 0e40 fc72 0b3f 9cef c33f
00000010: 114e 6a3e dfa8 b7be 8d55 ea3e 3db6 7d3f
00000020: 95ce 833f 2086 50bf 8fd6 8e3f 8cfc ec3f
00000030: b57b 90be f111 13bf a8e7 8f3f 86e0 fb3f
00000040: 17a6 4f3f 5b0a 0e40 1d10 89be e5d7 f03f
00000050: 7a99 7ebf f373 2abf a635 22be 325d de3e
00000060: 119d ec3f b59b bebf 001b 9b3f 194d bebd
00000070: 2baf c83f 14a9 b73f 48e3 ee3f 34e2 543f
00000080: 1d73 a33f ad3d f93f bc44 8bbf 4de3 4abf
00000090: c7f4 ca3f 7a51 e33f 448a 9ebe c962 8ebf
000000a0: 2720 a5bf 4ed0 b73f 5ca4 dd3f dc6c 143f
000000b0: cfba a33f 9596 22be 4c99 0540 80ae 973f
000000c0: a8ea c93e d506 bcbd dd08 cb3f 0af6 d03f
000000d0: 9af1 8a3e ff73 82bf 64aa eb3f ab93 1140
000000e0: fa17 e33f 27ba 33bd b620 933e 0fbb c63f
000000f0: e628 70bf 339f f5be 616a ebbe b0f3 9f3d
0.74265486 2.2270048 0.5447233 1.5307498 0.22881342 -0.35871026 0.45768395 0.991062
1.0297419 -0.8145466 1.1159228 1.8514571 -0.2821938 -0.5744925 1.1242571 1.9677894
0.8111281 2.219382 -0.26770106 1.8815886 -0.99452937 -0.66583174 -0.15840778 0.43430477
1.8485433 -1.4891268 1.2117615 -0.09292049 1.5678457 1.4348474 1.8663111 0.8315766
1.2769505 1.9471947 -1.0880351 -0.79253083 1.585595 1.775924 -0.30964863 -1.1123897
-1.2900437 1.4360445 1.7315784 0.57978606 1.2791384 -0.15877755 2.0874815 1.1850128
0.3943684 -0.091809906 1.586208 1.6325085 0.27137452 -1.0191649 1.8411374 2.274638
1.7741692 -0.0438787 0.28735894 1.5525836 -0.93812406 -0.47973022 -0.45979598 0.078101516

l2.bias f4 [8]
00000000: 03e8 123f fc9b 033e c851 2e3f 3b85 b33e
00000010: 1110 733f df9d 1b3f 4103 483e 87d9 603f
0.5738527 0.12852472 0.6809354 0.35062584 0.9494639 0.6078777 0.19532491 0.8783192

l3.weight f4 [8, 8]
00000000: 30aa 263f 6b27 d43f 9ec5 013f 6a28 503f
00000010: 3cc7 83bf 24ac 303f 6c24 e23f 412a 2f3f
00000020: a9b9 d33e d724 a43f bfcf 013f 055b 773f
00000030: 769c 5bbe 833a 8ebf 1faa 153f c359 0340
00000040: fe50 7c3f ec98 90bc 58e6 ee3f b580 84bf
00000050: feb3 dc3e 89b6 bf3e ae4d c93d 5ffa b23f
00000060: bfbd 1b3f e7da 84bd 6eeb dc3f 7b53 10bf
00000070: 4b68 f73e fe13 31bf 2cc9 e3be b5c7 e93f
00000080: 51de 833f 5746 3d3f e31b 5e3f 99a4 d0be
00000090: a4ba 40bf 4969 1240 2078 ab3f 4c43 53bf
000000a0: 5262 f63e 6c10 acbd 7b56 2bbf 8302 1440
000000b0: a117 0540 461b b53f 52b2 f43d 6786 72bf
000000c0: 6b58 1b3f dbed 76be a568 d93e 188c 933e
000000d0: afac e63f 7dca 36bf 9644 b7be 4eef 793e
000000e0: 55ff 973f 4e4e 51bf 78fe 983f 44d9 5cbf
000000f0: ebe2 933f b7d8 9c3f a4e0 d4bd 3462 65bf
0.65103436 1.657453 0.50692165 0.81311667 -1.0295177 0.69012666 1.7667365 0.6842385
0.41352585 1.2823743 0.5070762 0.9662326 -0.21446404 -1.1111606 0.5846271 2.0523536
0.98561084 -0.017651044 1.8664045 -1.0351778 0.43106073 0.3744395 0.09829269 1.3982657
0.60836405 -0.06487065 1.7259347 -0.5637738 0.48321757 -0.6917113 -0.4448942 1.8264071
1.030222 0.73935455 0.867613 -0.40750578 -0.7528479 2.287676 1.3396034 -0.8252456
0.48121887 -0.0840157 -0.66928834 2.3126533 2.0795672 1.4148948 0.119480744 -0.9473633
0.6068179 -0.24114172 0.4246265 0.2881782 1.8021449 -0.7140272 -0.35794514 0.24407694
1.1874796 -0.8176011 1.1952658 -0.8626902 1.1553625 1.2253636 -0.10394409 -0.8960297

l3.bias f4 [8]
00000000: 775c 40be 1073 6bbe 5377 4f3e 163d cc3e
00000010: b338 383e 3376 383f 1ea3 223f 2387 453f
-0.18785273 -0.22993112 0.20260362 0.39890355 0.17990379 0.7205536 0.6353015 0.7715933

l4.weight f4 [24, 8]
00000000: bd5a 1cbf 7963 0bbf 162a f2bf c869 02c0
00000010: b201 16bf be70 2c3f 9bbd 3b3e 2793 5b3e
00000020: 3c5b 193d e654 04bf 8683 9bbe ac56 22c0
00000030: 86e3 3a3f 5699 213e d9b8 00c0 ba3c 05bf
00000040: 8df1 d63d c760 ecbe bdcc 163f e09a d0bf
00000050: 3805 073f da8f 13bf 6e4d a9bf 1dd3 083e
00000060: cfcd 9bbe 07e0 f23e c540 47bf 6db9 1fc0
00000070: cac2 a6bf 6a21 1d3f 64dc 583e 0bbd 55bf
00000080: 152c 963d ca74 013f 1a59 293e bc64 d23e
00000090: 7e45 33bf 7c17 9abf 0f6e bb3d 1c14 24bf
000000a0: 1a2b 193f 196e d03d 7bb0 913e 1b2e 0bbf
000000b0: fada ba3e 0b99 efbf 03a2 83bf 6c76 2c3e
000000c0: d673 9cbe 86d8 c83d 4065 073f b498 043f
000000d0: 0146 b53e 515b 2ac0 999b 7fbe 81ea c13e
000000e0: 5521 003f 737f 1f3f 9aa2 b13e dc55 70be
000000f0: 4b99 89bc b6d6 6fbf c350 b3bf 8c83 e0bf
00000100: 613a 36bf c498 15bf dba3 103f cf94 a93d
00000110: 2167 0ebe 2112 33bf adb1 bb3e c7b6 b23e
00000120: 1753 aebe 11fa 70bd 059a d2bd 3017 15bf
00000130: 2521 b83e 8412 c1be 8119 71be 3521 623e
00000140: eb9a 3cbf 9f0a 16bf 0d73 b6bd bf8f 1cc0
00000150: 4a18 c83d 101b 793e 9dd8 14be 8cdb 0e3f
00000160: 1fa2 063e 8f5d 253f f1fb 3bbf 6f56 6fbf
00000170: 24b4 00bf 11c2 e93e 08bb d9be 6fee dabf
00000180: 3496 40bf d3bd d23e 2431 af3e d377 023f
00000190: 224f 5dbf f5ec 92bf 2e54 073f 3aa1 ae3e
000001a0: d0fa 173f 056f 743e b54c aabf 69ab e7bf
000001b0: 875e d93e eaa3 433d cae3 abbf 461e d6bf
000001c0: a742 14bf c0e1 0d3f 5b9a 0bbd 4e0b a0bd
000001d0: 89cd 19c0 a163 703e d117 e53e 757b 43bf
000001e0: f1dd dbbf 35f0 a2bc 8aa4 a23e 716b 3a3f
000001f0: f3a7 0ac0 a485 fcbd b5d7 d83e 9dac d83e
00000200: 799f 0abf 0dee a4bb b8ca 693d f369 81be
00000210: c138 50bf eab2 db3d b2d8 393d f5a9 783e
00000220: f4dd 8f3e 26ea 833e 580b 1bbe b912 90bf
00000230: 6919 6d3e 10b0 58be 7d2a ccbe ebb6 6bbf
00000240: c8b0 06c0 c190 c43d 22d5 c0bf 4dc6 01be
00000250: 47c6 03c0 8343 343f 05a8 003f 3e76 b8be
00000260: 4818 debf 02e7 2fbf c4fe c13d b1a5 a3be
00000270: 7a9f d0bf 5818 db3e 4884 003f d7d5 b03e
00000280: 4d24 1dc0 f51c 9bbf 8431 3b3e e741 af3e
00000290: 0b41 a0bd fed6 08be 5386 e53e 5ce9 313f
000002a0: 4bd8 8b3e 0332 8dbe ef27 373e 3c82 273e
000002b0: af62 563d cb15 9bbf 9a09 603e 20a6 1ebd
000002c0: 8dbe 9a3d 739a e4be 5edb 5abf a883 92bf
000002d0: 5429 443e e381 d73e 8fd8 b3be c7dc 52bf
000002e0: 0b2e 0bbf cb04 d0bf 0f6e 373e 02a3 7bbe
000002f0: 7da0 d93e c586 cbbe 6d90 673d 2308 e83e
-0.61075956 -0.5444866 -1.8919094 -2.0377064 -0.58596337 0.6735953 0.18334047 0.21442853
0.037440524 -0.51692045 -0.30373782 -2.53654 0.73003423 0.1578115 -2.0112822 -0.52045786
0.10495291 -0.46167585 0.58906156 -1.6297264 0.5274234 -0.57641375 -1.3226755 0.13361783
-0.30430457 0.47436544 -0.77833205 -2.4956925 -1.3028195 0.6137911 0.21177822 -0.8349158
0.07332627 0.5056883 0.16537896 0.4109248 -0.7002791 -1.2038417 0.091518514 -0.64093184
0.5983139 0.101772495 0.28454956 -0.54367226 0.3649519 -1.871858 -1.0283817 0.1684205
-0.30557126 0.098069236 0.5288887 0.51795506 0.3540497 -2.6618235 -0.249617 0.37874225
0.5005086 0.6230385 0.34694368 -0.23470253 -0.016796729 -0.93687 -1.4009022 -1.7540145
-0.7118283 -0.58436227 0.56500024 0.08280336 -0.13906528 -0.6994954 0.36658993 0.34905073
-0.34047768 -0.058832232 -0.10283283 -0.58238506 0.35962787 -0.3770944 -0.23544885 0.2208298
-0.73673886 -0.58609957 -0.08908663 -2.4462736 0.09770258 0.2432673 -0.14535756 0.5580375
0.13147782 0.64595884 -0.7343131 -0.9349126 -0.5027487 0.45655873 -0.42525506 -1.7104014
-0.7522919 0.4116045 0.3421718 0.5096409 -0.8644887 -1.1478564 0.52862823 0.3410738
0.59367085 0.23870476 -1.3304659 -1.8099185 0.4245493 0.047763743 -1.3428891 -1.6727989
-0.57914203 0.5542259 -0.03408275 -0.07814656 -2.4031699 0.23475505 0.44744733 -0.76360255
-1.7177106 -0.01988993 0.31766158 0.7282019 -2.1665008 -0.123301774 0.4235207 0.42319193
-0.54149586 -0.0050332607 0.057078093 -0.25276145 -0.813366 0.107274845 0.045372672 0.24283583
0.28099024 0.2576458 -0.15141046 -1.1255714 0.23154224 -0.21160913 -0.39876166 -0.92075986
-2.1045399 0.09597922 -1.5065043 -0.12673302 -2.058977 0.70415515 0.5025638 -0.36027712
-1.735116 -0.68711865 0.09472421 -0.3196235 -1.6298668 0.4279201 0.50201845 0.34538147
-2.4553406 -1.2118212 0.18280607 0.34229967 -0.07824906 -0.13363263 0.44829044 0.69496703
0.27313456 -0.27577218 0.17886327 0.16358274 0.052340206 -1.2116026 0.21878663 -0.038732648
0.07555876 -0.44649085 -0.8549098 -1.1446428 0.1915639 0.42091283 -0.3512616 -0.8236813
-0.5436713 -1.6251463 0.17913078 -0.24573901 0.42505255 -0.39751258 0.05653422 0.45318708

l4.bias f4 [24]
00000000: 5c1c 483d 88f6 d43e 0922 8bbd 60af c5bc
00000010: 8a70 a6be 1508 1b3c 36b2 cd3d 4eba a63e
00000020: bb1a d9be 5031 fabe 0731 fb3e 3c02 1f3e
00000030: 09b3 9ebe 588c 0b3e 5520 9d3e 4c8a b03e
00000040: 68ff 373e d90c 923d e4c2 9e3e ba2e 78be
00000050: 9f2a 973e c513 553e 30f6 81be 71c2 183e
0.04885517 0.41594338 -0.06793601 -0.024131477 -0.32507735 0.009462376 0.10043757 0.32564014
-0.42403206 -0.48865747 0.49060842 0.15528196 -0.30995968 0.13627756 0.3068873 0.34480512
0.17968524 0.07131357 0.31008065 -0.24236575 0.29524705 0.20808323 -0.2538314 0.14917924
