data.pth (torch, 11377 bytes, 8 tensors)

l1.weight f4 [8, 166]
0.5451193 0.23975344 0.10778782 0.13788506 0.40475613 -0.01220734 0.09004144 -0.082591645
-0.1572505 0.3195985 0.6051726 0.3710189 0.75836885 -0.15376854 -0.44558117 -0.5472204
0.3240031 0.296894 0.3525324 -0.46190217 -0.18537511 -0.27189746 -0.35094893 0.042916328
0.10880224 -0.3078049 0.072023526 0.20686117 -0.30255774 -0.34005225 -0.6939965 0.16653179
-0.3157812 -0.11673785 0.17796162 -0.22572747 -0.17767775 -0.030610813 -0.6206376 0.17343171
0.06176104 0.024563827 0.07933803 -0.073677056 0.40988645 -0.875194 -0.041541044 -0.25619838
-0.00088631443 -0.20937955 0.12147493 -0.06121207 -0.2346075 0.3893362 -0.19939163 0.3270953
-0.60099995 -0.37701416 0.6410095 0.0033761573 -0.054709155 0.55190307 -0.27014574 0.2184491
-0.20992704 0.6177322 0.38919967 0.54311657 0.5140795 0.8345738 0.26154628 0.79895836
0.16648318 0.19116056 0.3956654 -0.122782074 -0.34329742 0.07968338 0.3988213 0.021995269
0.32617107 -0.5472774 -0.031470098 0.481484 -0.10445031 0.21749987 0.5298688 0.73087496
0.34555447 0.13566895 0.5642138 0.71194357 0.3579266 0.15434119 0.2482006 0.2740153
0.037957918 0.002589267 -0.6538381 0.6793385 -0.5847731 0.1549739 0.4679778 0.38719085
-0.3120592 0.40188825 -0.20737346 0.014234778 0.7415312 -0.13874204 -0.065952845 0.2100843
0.07654365 0.28944117 -0.38704672 -0.39955086 -0.06889387 0.25394964 0.6248913 -0.0019723
-0.25953403 -0.30670863 0.31130636 -0.11432748 -0.08679029 -0.654113 -0.055139523 0.22789416
-0.3824619 -0.043827474 -0.060112644 -0.037896197 0.2790949 0.5218051 0.4424381 0.36748806
-0.10653211 0.11403232 1.0947094 0.5313898 0.06730302 -0.06875649 -0.05224514 -0.28563863
0.39310458 -0.0836296 0.23552942 -0.25038436 -0.09523531 -0.2933959 -0.10221207 -0.032167282
0.1892611 -0.1016637 0.013996236 0.26906523 -0.29451343 0.17525035 0.48118806 0.53817964
0.60196304 0.19078654 0.2743314 0.1818923 0.05126305 0.19279562 0.11165895 0.13451292
-0.06261063 -0.270479 -0.33572415 0.21045102 0.50914556 0.1402936 0.1970686 -0.24143726
0.24613772 0.2730161 -0.45493007 0.22476465 0.17776027 -0.18595225 -0.18792443 0.2330821
-0.38214317 -0.04312837 0.2624741 0.13978793 -0.4871222 0.031710744 -0.3357909 0.5069111
-0.32982475 -0.40722454 0.29539907 0.40757322 0.81136614 -0.42720333 0.47813773 0.33755502
0.73624 -0.14723335 0.46984735 -0.31767172 0.6409129 0.14569183 0.39354333 0.33349466
-0.08018213 0.06030958 -0.22825885 0.9290453 0.42356077 0.5082145 0.24159461 0.3253059
0.0989453 0.07100342 -0.06651208 -0.35422483 0.22684754 -0.03206063 0.6389606 0.0814692
-0.62653595 0.60133445 0.5920243 0.37967446 0.020499563 -0.3693675 0.5851877 0.49828202
-0.12408644 0.62343794 0.57495844 -0.37003654 0.25019085 -0.422109 0.09929548 0.1318311
-0.20972264 0.0774327 0.28558347 -0.0058177514 0.54919636 0.3775485 -0.5094515 -0.15143701
0.31531316 -0.53518146 0.08210212 -0.34762272 -0.62605226 -0.5437128 0.95487154 0.0043103574
00000000: f08c 0b3f ed81 753e dcbf dc3d be31 0d3e
00000010: 323c cf3e 4c01 48bc a667 b83d cf25 a9bd
00000020: 4606 21be 6aa2 a33e 97ec 1a3f 30f6 bd3e
00000030: 7624 423f 8075 1dbe 3723 e4be a316 0cbf
00000040: bce3 a53e 7e02 983e 207f b43e 717e ecbe
00000050: f9d2 3dbe 2536 8bbe 94af b3be 08c9 2f3d
00000060: b5d3 de3d 9b98 9dbe 1281 933d 6ad3 533e
00000070: d9e8 9abe 541b aebe c1a9 31bf 4f87 2a3e
00000080: 13ae a1be 4114 efbd 923b 363e 1a25 67be
00000090: 28f1 35be 87c3 fabc 1be2 1ebf 1598 313e
000000a0: 25f9 7c3d 143a c93c fa7b a23d ffe3 96bd
000000b0: a3dc d13e b70c 60bf f126 2abd 6f2c 83be
000000c0: 8e57 68ba 9867 56be d9c7 f83d 82b9 7abd
000000d0: f33c 70be 1357 c73e 522d 4cbe 0979 a73e
000000e0: 22db 19bf 0008 c1be 3319 243f 8542 5d3b
000000f0: b516 60bd 8549 0d3f 8b50 8abe 1fb1 5f3e
00000100: 1df7 56be b323 1e3f 2e45 c73e b009 0b3f
00000110: b79a 033f a1a6 553f 65e9 853e 8988 4c3f
00000120: 917a 2a3e 98bf 433e a894 ca3e 2b75 fbbd
00000130: aec4 afbe 0a31 a33d 4e32 cc3e 6c2f b43c
00000140: e5ff a63e 5f1a 0cbf cae6 00bd 1285 f63e
00000150: 0bea d5bd 49b8 5e3e 7ba5 073f 9f1a 3b3f
00000160: 84ec b03e cdec 0a3e 5170 103f ef41 363f
00000170: 2842 b73e 9e0b 1e3e 4c28 7e3e bc4b 8c3e
00000180: c379 1b3d b1b0 293b ef61 27bf 21e9 2d3f
00000190: b1b3 15bf 7ab1 1e3e c99a ef3e e13d c63e
000001a0: 39c6 9fbe 4cc4 cd3e b559 54be fc38 693c
000001b0: fdd4 3d3f 6512 0ebe 4912 87bd 5720 573e
000001c0: ebc2 9c3d a231 943e fd2a c6be ee91 ccbe
000001d0: 3b18 8dbd b005 823e e0f8 1f3f b441 01bb
000001e0: a5e1 84be ea08 9dbe 8c63 9f3e 8724 eabd
000001f0: 1cbf b1bd f373 27bf fbd9 61bd 165d 693e
00000200: 0cd2 c3be 7084 33bd ad38 76bd 0b39 1bbd
00000210: 87e5 8e3e 0595 053f 3f87 e23e 6527 bc3e
00000220: 822d dabd c789 e93d 701f 8c3f 2909 083f
00000230: 2ad6 893d 34d0 8cbd 00ff 55bd 3a3f 92be
00000240: 0145 c93e ff45 abbd a02e 713e 6132 80be
00000250: bb0a c3bd fd37 96be 9054 d1bd d7c1 03bd
00000260: a9cd 413e 0f35 d0bd 7850 653c ebc2 893e
00000270: 77ca 96be d474 333e 485e f63e 24c6 093f
00000280: 401a 1a3f 8c5d 433e 2a75 8c3e fa41 3a3e
00000290: 34f9 513d 376c 453e 73ad e43d c1bd 093e
000002a0: 013a 80bd 397c 8abe 09e4 abbe 7980 573e
000002b0: 5d57 023f 20a9 0f3e 5acc 493e 543b 77be
000002c0: 870b 7c3e c4c8 8b3e 98ec e8be b428 663e
000002d0: ca06 363e 446a 3ebe 436f 40be 13ad 6e3e
000002e0: 45a8 c3be 60a7 30bd 0163 863e 9124 0f3e
000002f0: 1568 f9be 20e3 013d c9ec abbe edc4 013f
00000300: cade a8be bc7f d0be 8c3e 973e 70ad d03e
00000310: b1b5 4f3f 65ba dabe 78ce f43e 03d4 ac3e
00000320: 3a7a 3c3f 57c4 16be d58f f03e dea5 a2be
00000330: de12 243f 3d30 153e 837e c93e d0bf aa3e
00000340: 8736 a4bd 2e07 773d b0bc 69be ead5 6d3f
00000350: f5dc d83e 581a 023f 9464 773e 7f8e a63e
00000360: d5a3 ca3d 3e6a 913d 7c37 88bd f55c b5be
00000370: b94a 683e 0252 03bd ec92 233f 53d9 a63d
00000380: a964 20bf 0ef1 193f e88e 173f b164 c23e
00000390: b3ee a73c bd1d bdbe dcce 153f d21e ff3e
000003a0: 0821 febd a199 1f3f 7a30 133f 6e75 bdbe
000003b0: 0419 803e ac1e d8be 6e5b cb3d bbfe 063e
000003c0: 88c1 56be 0995 9e3d ff37 923e d6a2 bebb
000003d0: 2298 0c3f 094e c13e 6a6b 02bf 4e12 1bbe
000003e0: ba70 a13e a701 09bf 2825 a83d 9bfb b1be
000003f0: f644 20bf c330 0bbf 7672 743f e63d 8d3b

l1.bias f4 [8]
0.6537006 0.61796653 0.9367288 0.969988 0.7754205 0.9378825 0.957097 0.7898895
00000000: ec58 273f 0e33 1e3f 75cd 6f3f 2251 783f
00000010: f581 463f 1119 703f 4f04 753f 3336 4a3f

l2.weight f4 [8, 8]
0.00907585 -0.040161133 -0.2882608 0.017599761 -0.12703013 -0.040980816 -0.32284367 -0.1846958
-0.6314528 1.5597147 0.62183475 1.6848018 -0.27823636 0.9442991 -0.74109757 -0.70280826
1.9024696 -0.5800031 0.5139124 -0.2831966 1.038411 0.42219123 1.463292 0.65757823
-0.2256139 1.1464192 -1.3038194 1.2981521 1.601972 -1.303936 1.7028934 1.404988
-1.1670158 0.39162078 0.9475833 0.4622986 -1.1818018 1.0386176 0.30464953 1.7864202
1.6292802 -1.4690187 1.6118073 -0.6947549 0.2539031 1.2782332 1.1287119 1.320107
0.27541357 0.19908357 1.2068135 0.536596 -0.93333155 1.7963904 -0.8650215 0.49953732
0.8654207 1.5005199 1.0184759 1.4016348 0.21053225 0.98054045 0.7387758 -1.5052118
00000000: e0b2 143c 0080 24bd eb96 93be 602d 903c
00000010: 3014 02be 80db 27bd c44b a5be e520 3dbe
00000020: e4a6 21bf bba4 c73f 9030 1f3f 96a7 d73f
00000030: ff74 8ebe 96bd 713f 92b8 3dbf 3eeb 33bf
00000040: 2084 f33f 157b 14bf c38f 033f 25ff 90be
00000050: a7ea 843f 7329 d83e 274d bb3f 0c57 283f
00000060: 5507 67be ddbd 923f 8ee3 a6bf d929 a63f
00000070: 6b0d cd3f 60e7 a6bf 69f8 d93f a6d6 b33f
00000080: c660 95bf 8582 c83e d294 723f 67b2 ec3e
00000090: 4845 97bf 6cf1 843f 06fb 9b3e 6ba9 e43f
000000a0: 418c d03f ce08 bcbf b44f ce3f 75db 31bf
000000b0: 96ff 813e 259d a33f a279 903f 44f9 a83f
000000c0: 0203 8d3e 90dc 4b3e dd78 9a3f 5b5e 093f
000000d0: d1ee 6ebf 1ff0 e53f 0d72 5dbf 5bc3 ff3e
000000e0: 368c 5d3f 0911 c03f 6b5d 823f c568 b33f
000000f0: c495 573e b304 7b3f 6920 3d3f c8aa c0bf

l2.bias f4 [8]
-0.06430909 0.68597555 0.28843957 0.87271583 -0.09463903 0.2901085 0.10177564 0.4210456
00000000: 7cb4 83bd 189c 2f3f 5aae 933e 4e6a 5f3f
00000010: 1cd2 c1bd 1a89 943e bf6f d03d 4a93 d73e

l3.weight f4 [8, 8]
-0.06149301 -0.10443814 0.81107205 0.1588163 -1.3640404 -0.24625936 -0.643265 0.56869614
0.06120193 1.3792913 -0.34513506 0.5332586 -0.7058218 -0.7868139 0.12969999 1.5978448
0.19869104 0.0827564 1.0029246 -0.40180013 -1.0172999 0.7777835 0.22967328 0.5818441
-0.13081956 0.32246906 0.35048887 2.0727727 0.05675664 -0.3518854 -1.2251247 0.64440036
0.23266461 -0.98718214 1.1222063 0.44862303 0.44193748 1.1189878 -0.3769533 -0.8494366
0.21961978 0.7282447 0.14290042 -0.77120477 2.054194 1.1943145 1.5497583 0.9655164
0.19593617 -0.9312426 0.9421121 0.7781655 -0.75303054 0.34548554 -0.34186977 -0.3413514
-0.22945717 -0.8761549 0.7068279 0.11207766 -0.67083526 1.0115974 -0.49325222 0.41390526
00000000: 18e0 7bbd aae3 d5bd 6ba2 4f3f bda0 223e
00000010: e098 aebf 6a2b 7cbe 04ad 24bf 1296 113f
00000020: e0ae 7a3d 9e8c b03f 8bb5 b0be a383 083f
00000030: bdb0 34bf a36c 49bf 13d0 043e 2e86 cc3f
00000040: aa75 4b3e 307c a93d d55f 803f bfb8 cdbe
00000050: e236 82bf d21c 473f 792f 6b3e bcf3 143f
00000060: 90f5 05be aa1a a53e 4773 b33e 4fa8 0440
00000070: a779 683d 532a b4be e3d0 9cbf 6cf7 243f
00000080: a23f 6e3e f8b7 7cbf 75a4 8f3f ebb1 e53e
00000090: a145 e23e fe3a 8f3f 0600 c1be ad74 59bf
000000a0: 02e4 603e 3f6e 3a3f 7d54 123e ad6d 45bf
000000b0: ea77 0340 4cdf 983f 7b5e c63f 152c 773f
000000c0: 7ea3 483e ea65 6ebf 422e 713f db35 473f
000000d0: 9cc6 40bf 7be3 b03e 8e09 afbe 9cc5 aebe
000000e0: d2f6 6abe b04b 60bf acf2 343f f988 e53d
000000f0: dcbb 2bbf 067c 813f 8e8b fcbe 64eb d33e

l3.bias f4 [8]
-0.23049314 0.47678807 0.2701292 0.7039393 0.32670274 0.22331296 -0.3319207 0.085302494
00000000: 6506 6cbe 911d f43e 604e 8a3e 5e35 343f
00000010: 9545 a73e 27ac 643e 83f1 a9be 13b3 ae3d

l4.weight f4 [21, 8]
-2.5385208 -1.2547039 0.09207992 -0.3820272 0.39361432 -0.33549607 0.042070575 0.5323688
-0.20157395 -1.2268734 -1.087726 -1.0716745 -0.43918362 0.76670367 -0.49699524 -1.2415605
-0.07194406 0.4601836 -0.23343334 0.4692104 -1.5816476 -0.89948624 -1.8904963 -1.1322842
-0.15753293 -0.78470254 -0.47724992 0.31518042 0.18831208 -1.8736794 0.25982898 0.29192668
-0.29217604 -1.5545031 -0.1916619 -0.09530705 0.49643654 -1.2341416 0.2729457 0.2296994
-0.46527854 0.62848854 -1.6025472 -0.53407514 -0.8563453 0.26759613 -0.47343513 -0.74465877
-0.37870547 0.20604 -1.0615137 0.66017723 -0.54835606 -1.361946 -0.34195396 -0.34381834
-1.0045785 0.36057496 0.7905742 -1.5093495 -1.1054118 -0.11370402 -2.3806849 0.12605418
0.2277721 -0.011807851 -0.09686579 0.1550083 -0.4785591 -1.3984611 0.16807264 0.38888913
-2.2536142 0.4529845 -0.4029752 0.4789482 -0.8609307 -0.29230252 -1.2375057 -0.50278383
0.70992327 0.27730224 -0.5206424 0.14603698 -1.4645299 -0.70191073 -0.56068015 0.22197963
-0.50358987 0.49032933 -0.53808415 -1.7500702 -1.7591099 0.40985876 -0.2791328 -1.1027403
-2.3893971 -0.956161 -0.21043901 -1.8451549 0.5738069 -0.006952831 0.13424797 0.37833473
-2.7808154 -0.16463211 0.003401952 0.066045284 0.39951682 0.058020283 -2.8594692 -0.25280455
-0.58376986 -0.1826401 -0.48181972 0.22258745 -0.07448912 -0.28551966 -0.4025668 0.16087486
-1.9103163 -0.022174891 0.3558392 -0.049483072 -2.285319 0.27646416 -1.539414 -1.1210974
-1.1318346 -1.4639882 -0.74287605 0.40763393 0.4851902 -0.6507627 0.013121993 0.2177548
-0.3040001 0.5195446 0.4436335 -0.23621564 -1.8038125 -0.33027977 -1.7988123 0.41054943
-2.0459614 -1.5060247 0.11180654 -1.0306559 0.050181277 0.26695582 -2.2787783 0.5576199
-2.6051073 -0.09545744 -0.07340759 -1.4135808 -0.6348977 0.4002215 -1.1649716 -0.11370349
-0.5892601 -0.42951614 0.49288195 -0.85527575 0.070132114 -0.12694599 -0.86649996 0.19973606
00000000: 2077 22c0 239a a0bf 6694 bc3d 1299 c3be
00000010: d187 c93e 24c6 abbe 3252 2c3d 5249 083f
00000020: 6769 4ebe 300a 9dbf 9b3a 8bbf a12c 89bf
00000030: addc e0be b146 443f 2976 febe 74eb 9ebf
00000040: 6857 93bd 2f9d eb3e 2609 6fbe 583c f03e
00000050: 6e73 cabf bb44 66bf c8fb f1bf b0ee 90bf
00000060: 5050 21be 44e2 48bf 1a5a f4be 545f a13e
00000070: e2d4 403e bad4 efbf 4e08 853e 6a77 953e
00000080: 1998 95be f5f9 c6bf 0443 44be 5830 c3bd
00000090: ee2c fe3e 5af8 9dbf 8abf 8b3e 5236 6b3e
000000a0: fd38 eebe a0e4 203f 4420 cdbf 26b9 08bf
000000b0: 7239 5bbf 5c02 893e 1766 f2be f5a1 3ebf
000000c0: afe5 c1be 26fc 523e aedf 87bf 6001 293f
000000d0: 1061 0cbf 3f54 aebf 9714 afbe f508 b0be
000000e0: 0796 80bf 489d b83e 1263 4a3f 5d32 c1bf
000000f0: 227e 8dbf a7dd e8bd 245d 18c0 5914 013e
00000100: 173d 693e b775 41bc 9261 c6bd 7fba 1e3e
00000110: b305 f5be c600 b3bf 3c1b 2c3e 7a1c c73e
00000120: 373b 10c0 96ed e73e c452 cebe b338 f53e
00000130: f465 5cbf ada8 95be 9666 9ebf 71b6 00bf
00000140: 88bd 353f 8ffa 8d3e d248 05bf b88a 153e
00000150: b775 bbbf 6cb0 33bf bc88 0fbf a14e 633e
00000160: 44eb 00bf 720c fb3e e2bf 09bf 4d02 e0bf
00000170: 832a e1bf 02d9 d13e 7fea 8ebe 9826 8dbf
00000180: e2eb 18c0 f8c6 74bf 537d 57be 092e ecbf
00000190: 02e5 123f 93d4 e3bb 4d78 093e 17b5 c13e
000001a0: e1f8 31c0 5295 28be 49f3 5e3b c042 873d
000001b0: 788d cc3e ada6 6d3d 8b01 37c0 996f 81be
000001c0: f171 15bf 0206 3bbe 13b1 f6be f7ed 633e
000001d0: c08d 98bd a22f 92be 3c1d cebe 61bc 243e
000001e0: 3f85 f4bf 1ea8 b5bc 8e30 b63e c3ae 4abd
000001f0: ab42 12c0 b68c 8d3e 850b c5bf 1f80 8fbf
00000200: f5df 90bf f763 bbbf 202d 3ebf 65b5 d03e
00000210: da6a f83e 6298 26bf a1fd 563c 1dfb 5e3e
00000220: e7a5 9bbe e000 053f ee23 e33e 83e2 71be
00000230: 54e3 e6bf 6e1a a9be 7b3f e6bf 8933 d23e
00000240: 08f1 02c0 6bc5 c0bf d4fa e43d 88ec 83bf
00000250: e28a 4d3d 6fae 883e 81d7 11c0 2ec0 0e3f
00000260: 14ba 26c0 317f c3bd b856 96bd 37f0 b4bf
00000270: a888 22bf d5e9 cc3e ca1d 95bf 60dd e8bd
00000280: c0d9 16bf 8ae9 dbbe 065b fc3e 5af3 5abf
00000290: 6da1 8f3d 21fe 01be f1d2 5dbf 9c87 4c3e

l4.bias f4 [21]
0.13453482 0.393433 -0.08402155 -0.07140517 -0.40006307 0.13960876 0.268361 -0.066778995
0.19591568 -0.2204986 -0.57370526 -0.14546344 0.047852874 0.15952544 -0.1548978 0.405233
0.05617077 0.11309559 0.16828121 -0.011287657 0.20512062
00000000: 7fc3 093e 0d70 c93e 7e13 acbd e03c 92bd
00000010: 11d5 ccbe 99f5 0e3e 9d66 893e 6dc3 88bd
00000020: 1f9e 483e 63ca 61be 59de 12bf 5ef4 14be
00000030: 6001 443d a35a 233e 879d 1ebe b37a cf3e
00000040: 5213 663d a99e e73d e951 2c3e ddef 38bc
00000050: 240b 523e
